…
2026-03-09 16:11:55,190 | INFO | [train] shard 4: n=707 | X_4.npy
2026-03-09 16:11:55,197 | INFO | [train] shard 5: n=668 | X_5.npy
2026-03-09 16:11:55,205 | INFO | [eval] shard 0: n=707 | X_0.npy
2026-03-09 16:11:55,211 | INFO | [eval] shard 1: n=317 | X_1.npy
2026-03-09 16:11:55,216 | INFO | X_tr shape: (4203, 19, 5000) | y_tr shape: (4203,)
2026-03-09 16:11:55,216 | INFO | X_ev shape: (1024, 19, 5000) | y_ev shape: (1024,)
2026-03-09 16:11:55,335 | INFO | Train labels: [0, 1]
2026-03-09 16:11:55,335 | INFO | Train counts: {0: 1891, 1: 2312}
2026-03-09 16:11:55,462 | INFO | EEGNet(
  (raw_stem): Sequential(
    (0): Conv1d(19, 48, kernel_size=(15,), stride=(2,), padding=(7,), bias=False)
    (1): BatchNorm1d(48, eps=1e-05, momentum=0.1, affine=True, track_running_stats=True)
    (2): SiLU()
    (3): SE1D(
      (fc1): Linear(in_features=48, out_features=6, bias=True)
      (fc2): Linear(in_features=6, out_features=48, bias=True)
    )
  )
  (block1): DSConvBlock(
    (dw): Conv1d(48, 48, kernel_size=(11,), stride=(2,), padding=(5,), groups=48, bias=False)
    (pw): Conv1d(48, 64, kernel_size=(1,), stride=(1,), bias=False)
    (bn): BatchNorm1d(64, eps=1e-05, momentum=0.1, affine=True, track_running_stats=True)
    (act): SiLU()
    (se): SE1D(
      (fc1): Linear(in_features=64, out_features=8, bias=True)
      (fc2): Linear(in_features=8, out_features=64, bias=True)
    )
    (drop): Dropout(p=0.1, inplace=False)
  )
  (block2): DSConvBlock(
    (dw): Conv1d(64, 64, kernel_size=(7,), stride=(2,), padding=(3,), groups=64, bias=False)
    (pw): Conv1d(64, 96, kernel_size=(1,), stride=(1,), bias=False)
    (bn): BatchNorm1d(96, eps=1e-05, momentum=0.1, affine=True, track_running_stats=True)
    (act): SiLU()
    (se): SE1D(
      (fc1): Linear(in_features=96, out_features=12, bias=True)
      (fc2): Linear(in_features=12, out_features=96, bias=True)
    )
    (drop): Dropout(p=0.12, inplace=False)
  )
  (block3): DSConvBlock(
    (dw): Conv1d(96, 96, kernel_size=(5,), stride=(2,), padding=(2,), groups=96, bias=False)
    (pw): Conv1d(96, 128, kernel_size=(1,), stride=(1,), bias=False)
    (bn): BatchNorm1d(128, eps=1e-05, momentum=0.1, affine=True, track_running_stats=True)
    (act): SiLU()
    (se): SE1D(
      (fc1): Linear(in_features=128, out_features=16, bias=True)
      (fc2): Linear(in_features=16, out_features=128, bias=True)
    )
    (drop): Dropout(p=0.15, inplace=False)
  )
  (attn): Conv1d(128, 1, kernel_size=(1,), stride=(1,))
  (spectral): SpectralBandPower()
  (spec_proj): Sequential(
    (0): Linear(in_features=95, out_features=96, bias=True)
    (1): SiLU()
    (2): Dropout(p=0.15, inplace=False)
    (3): Linear(in_features=96, out_features=64, bias=True)
    (4): SiLU()
  )
  (fuse): Sequential(
    (0): Linear(in_features=192, out_features=128, bias=True)
    (1): SiLU()
    (2): Dropout(p=0.2, inplace=False)
  )
  (head): Sequential(
    (0): Linear(in_features=128, out_features=64, bias=True)
    (1): SiLU()
    (2): Dropout(p=0.2, inplace=False)
    (3): Linear(in_features=64, out_features=2, bias=True)
  )
)
2026-03-09 16:11:57,539 | INFO | ========== TRAINING ==========
2026-03-09 16:12:06,772 | INFO | Epoch 001/40 | train_loss=0.5343 train_acc=0.7066 | val_loss=0.4359 val_acc=0.7891 val_bal_acc=0.7810 val_macro_f1=0.7826 | lr=1.00e-03
2026-03-09 16:12:15,719 | INFO | Epoch 002/40 | train_loss=0.2947 train_acc=0.8734 | val_loss=0.4413 val_acc=0.7637 val_bal_acc=0.7551 val_macro_f1=0.7560 | lr=1.00e-03
…
